model_weights.pth (torch, 690406 bytes, 34 tensors)

conv1.weight f4 [64, 3, 3, 3]
000000 6e fb 42 3e 89 b1 56 be 76 26 bd bd 49 dd 06 3e
       0.19041225 -0.20966162 -0.092358515 0.13170351
000010 0c 43 33 3e b2 e5 5b bc b6 89 93 3d 3b 78 b7 bd
       0.17506045 -0.013421463 0.07204001 -0.08958479
000020 ba f3 c1 3c d2 57 3f 3e b9 16 0b be c3 d6 09 3e
       0.023675788 0.18685845 -0.13582887 0.13460831
000030 90 be 40 be 6e dc 1f bd 4f 84 32 be 40 fa e3 3d
       -0.18822694 -0.039028578 -0.17433284 0.11131716
000040 7d 0c 75 bd e7 45 29 3e b0 f8 29 3e f7 6b 88 3c
       -0.059826363 0.16530572 0.16598773 0.016653044
000050 b1 f3 b7 bc 1d 5e 34 3e 56 21 ea bd 86 ee 2e bd
       -0.022455068 0.17614026 -0.114321396 -0.042707942
000060 7b 55 46 3b 45 59 f8 bd 44 e6 1f be db 11 31 be
       0.0030263353 -0.12126402 -0.15615183 -0.17291968
000070 10 22 47 3b 31 d5 39 3e 94 3e fe 3d af a9 d9 3c
       0.0030385293 0.18147732 0.124142796 0.02657017
000080 0c fd 10 be 64 c8 01 3e 5e 51 fd 3d 3d 55 71 3d
       -0.1415903 0.12674099 0.12369035 0.05891918
000090 00 01 1f 3d c5 dc 1d be 35 30 00 3d eb 3f 95 bd
       0.038819313 -0.15416248 0.031295974 -0.07287582
0000a0 a2 0b d1 3d 78 1e 96 3d d4 4d 05 be 8e 78 df bd
       0.10207297 0.0733003 -0.1301797 -0.10911666
0000b0 7d d4 03 3e f3 cf c8 bd 6b 6e 07 bc d2 fe d8 bd
       0.12874027 -0.09805288 -0.008266072 -0.10595478
0000c0 5c 3f 34 3c 66 0a 22 3e cb 8b 11 3c 50 5f 26 3e
       0.011001434 0.15824279 0.008883427 0.16247296
0000d0 b9 c6 28 3e 48 fe f2 bd 55 45 af b8 6a fe 84 bd
       0.16482057 -0.118649065 -8.3575644e-05 -0.06493838
0000e0 94 89 e1 3d ed da 2d 3e 68 51 0e 3e 59 6d b4 3d
       0.11012569 0.16978045 0.13898242 0.08809919
0000f0 5b 14 17 3d a7 e1 ee bd 79 b9 58 3d d2 82 78 be
       0.036884647 -0.116641335 0.052911256 -0.24268654
000100 30 e3 2a be 8a 1b e6 bc c8 0d 0b 3d 98 c9 87 3c
       -0.16688228 -0.028089304 0.03394869 0.01657562
000110 b7 ee 26 bd ab c4 e5 bd dd 50 61 3e ab f9 29 be
       -0.040755 -0.11219152 0.22003503 -0.16599147
000120 c2 28 02 be 78 7c 16 3e 36 31 1e 3e 18 c3 ff 3d
       -0.1271086 0.14695919 0.1544846 0.12488383
000130 bf f9 f2 bd c2 59 9b 3d 86 d1 a5 bd f6 ea 34 be
       -0.118640415 0.07585479 -0.08096604 -0.17667755
000140 b8 c7 62 bd fd 52 88 3d 8d d3 bd 3d fa e3 87 3c
       -0.055366248 0.06656454 0.09268866 0.0165882
000150 84 61 19 3c 02 83 e4 3c 35 4f ab 3d ee c6 1e 3e
       0.009361628 0.0278945 0.08364717 0.15505573
000160 92 24 b4 bd 4f fe 03 bd b4 75 37 3d b8 23 8a bd
       -0.08796038 -0.03222495 0.044789985 -0.06745094
000170 d4 df 57 be c1 4c df 3d 36 ef 1f be 97 05 02 3e
       -0.21081477 0.109033115 -0.15618595 0.12697445
000180 16 c8 f8 bd c1 3b 41 3d 18 b4 11 3e 8e 97 1e bd
       -0.12147538 0.047176126 0.14228857 -0.038718753
000190 96 32 1a be 02 ad 0f 3d 0e 9e 15 3d 37 f1 fc 3d
       -0.1505836 0.035077102 0.036527686 0.123506956
0001a0 14 c7 25 3d 53 f4 09 be e0 6f 47 be bb be fa bc
       0.04047306 -0.13472109 -0.1947627 -0.030608525
0001b0 12 e0 0b bd c2 91 2a be 08 f0 04 3d 37 4e 27 3e
       -0.034149237 -0.16657165 0.032455474 0.1633843
0001c0 a7 be 8a bd 06 08 56 bd b5 f9 96 bd 23 15 4b bd
       -0.06774645 -0.052253745 -0.073718466 -0.049580704
0001d0 cd c8 9e 3d 99 70 43 be f6 a4 2a 3c f5 83 4f be
       0.077531435 -0.19085921 0.010415306 -0.20265181
0001e0 06 3e 16 bc 42 b2 e7 3d 05 e5 25 be a4 5c 61 be
       -0.009170061 0.11313297 -0.16200645 -0.22007996
0001f0 7a ad c2 bc 47 42 3e be c9 b0 87 bb 2c 5c 03 3e
       -0.02376436 -0.1857997 -0.0041409475 0.1282813
000200 cf b5 e2 bd 57 ed 11 3e a9 d3 0f 3e 48 d6 24 be
       -0.110698335 0.14250694 0.14045586 -0.16097367
000210 9f 10 4a be 72 a4 0e 3e 81 3d fa 3d 2e 36 17 be
       -0.19732903 0.13929918 0.12218762 -0.14766762
000220 2e 90 51 3d 7f da 87 3d 3a ef 4c bd ea bf 8c bd
       0.05116289 0.06633472 -0.05003283 -0.06872542
000230 ea fb 6b bc 3c 95 1c be e4 a7 1d be c3 be 2a 3e
       -0.014403323 -0.15291303 -0.15396076 0.16674332
000240 68 1b 36 be 91 05 61 3e e6 ac 15 3e 94 84 62 be
       -0.17783892 0.2197478 0.14616737 -0.22120887
000250 aa b7 83 bd 08 d4 5c be ee b4 95 bc 77 f3 00 3e
       -0.064315155 -0.21565259 -0.01827475 0.12592874
000260 f9 56 81 bc f6 cf 46 3e b1 ff b6 bd 04 ab e8 3d
       -0.015788542 0.19415268 -0.08935488 0.11360744
000270 ef 6a c7 bd 1e 41 14 be a0 e3 40 3d 1a 23 12 bc
       -0.09737193 -0.14477965 0.04709208 -0.008919502
000280 27 89 79 bd b0 8c 6f 3d b9 d4 38 be bd 7f 2a 3e
       -0.060921814 0.05848378 -0.18049897 0.16650291
000290 b0 8f 59 bd 33 ad 99 bc 84 3c 5c 3d bc c5 9d bc
       -0.053115547 -0.018759346 0.05376865 -0.019259326
0002a0 a5 c3 14 3e b9 1e c2 3c f4 2e d6 bd ad 25 46 bd
       0.14527757 0.02369629 -0.10458174 -0.048375774
0002b0 54 6b 0f 3e 7e 69 c9 3d 7e 59 03 3e 50 5a e3 bd
       0.14005786 0.09834574 0.12827107 -0.1110121
0002c0 82 8f 28 be 7b b3 e1 bd 7a 45 2c 3e 57 68 08 3e
       -0.16460994 -0.11020561 0.16823378 0.13321052
0002d0 dc f9 41 be 7d 09 24 3d 1f aa 87 bd b5 15 1c 3e
       -0.1894297 0.04004811 -0.06624245 0.15242656
0002e0 67 f7 7d 3d ac 49 19 be 6d dd 26 3d 39 3d d5 ba
       0.06200352 -0.1496951 0.04073851 -0.0016268856
0002f0 f2 1b 47 3e 39 eb 00 be 38 5d d3 3c dc b6 e2 3d
       0.19444254 -0.1258973 0.025801286 0.11070034
000300 6c a5 34 bd af 53 86 bd 23 e0 2d 3e 69 51 de bd
       -0.04410307 -0.0655893 0.16980033 -0.108553715
000310 f7 33 09 3d 0e bd 3c bd 4c 5e 5a be de d0 b9 3c
       0.033496823 -0.046078734 -0.21325034 0.022682603
000320 9a 04 f1 bc 5a 0b a4 bb 03 93 84 bd 8e c2 55 3e
       -0.02942114 -0.005006236 -0.06473353 0.20874998
000330 19 c5 93 bd c2 40 7f bd a3 ad e6 3d 06 92 25 be
       -0.07215328 -0.062317617 0.11263587 -0.16168985
000340 40 85 ef 3d 60 94 71 be 1e fb e4 3d a4 34 dd 3d
       0.11695337 -0.23591757 0.11180709 0.10801056
000350 67 b1 8c 3d 28 62 09 3e d7 be 8e 3d 0b cc 93 3c
       0.06869774 0.1341635 0.069699936 0.018041631
000360 6b fa 4e 3e de 56 5f be 70 95 c5 bd 96 59 a6 bd
       0.20212714 -0.21810481 -0.096476436 -0.08122556
000370 1d c8 28 3e e6 ff 0f 3e 4d 96 57 bd 78 72 fe bc
       0.16482587 0.14062461 -0.052633572 -0.031060442
000380 6c d2 25 3e 8a 52 ea 3d bb 30 bb 3d 7d 6f 84 bc
       0.16193551 0.11441524 0.09140154 -0.016166443
000390 cd b9 da bd e6 32 26 be 01 59 24 bd 23 64 4c 3e
       -0.1067997 -0.16230354 -0.040123943 0.19960074
0003a0 fb 12 0b 3e 69 1f b6 3d 39 3a d4 bd 82 fc 1a 3e
       0.13581459 0.0889271 -0.103626676 0.15135387
0003b0 87 b5 13 bd c0 9e 05 3d 50 0f 33 bd 50 a9 1c 3d
       -0.03606179 0.0326221 -0.043715775 0.038247406
0003c0 ce a7 35 3e 1a de d7 bd 97 fc 6d 3d 3a c3 c9 3c
       0.17739794 -0.105404094 0.058102217 0.024629224
0003d0 dd f9 1f bc 53 7d 54 bd d2 a4 0b bc 58 96 03 bd
       -0.009764162 -0.05187733 -0.008523183 -0.0321258
0003e0 d8 9d fb 3d 39 f6 1a 3e 9c af ba bd 69 42 19 be
       0.12285966 0.15132989 -0.09115526 -0.1496674
0003f0 f0 69 cd bd 2f 7d 9f 3d cb e2 52 bc 90 2f 85 3c
       -0.100299716 0.07787549 -0.0128714545 0.016258031

conv1.bias f4 [64]
000000 0d dd 99 3d 0e c5 b8 3d 14 87 92 bd 47 7b 8f bd
       0.07512865 0.0902196 -0.0715467 -0.07005935
000010 69 86 42 bc 6d 04 19 3e cd c9 71 3c 0e 97 02 3e
       -0.011872866 0.14943095 0.014757586 0.12752935
000020 a3 da 20 be c0 c1 c7 3d 54 05 01 3e b6 da d4 3c
       -0.15708403 0.09753752 0.12599689 0.025983196
000030 19 7d 55 bd ca db f9 bd 8d 9f 32 3e 11 89 05 be
       -0.052121256 -0.122001246 0.17443676 -0.13040568
000040 d7 f5 75 ba 64 4a 30 be 6e f2 42 3d 80 2f 14 be
       -0.00093826413 -0.17215878 0.04759448 -0.14471245
000050 35 31 0d 3e 4f 9d 39 bc c1 ac c1 bc 03 b2 41 bd
       0.13788302 -0.011329009 -0.023641946 -0.047288906
000060 78 4a 5d 3b fa bb b2 bd 87 68 d4 3c 0b 15 14 3c
       0.003376631 -0.0872726 0.025928749 0.00903822
000070 be f2 da 3c dd a3 d3 3c de 75 03 3e ce 35 29 be
       0.026727077 0.025834972 0.12837932 -0.16524431
000080 2e 60 f9 3d a2 28 e0 3d 6f 8d 37 be c1 33 44 bc
       0.12176548 0.1094525 -0.17925046 -0.01197523
000090 59 8c f3 bd ff 85 30 be e3 d5 36 3e 57 55 36 3e
       -0.118920036 -0.17238615 0.17855029 0.17805992
0000a0 24 b2 2a be 52 27 25 be 23 56 3e 3e fc 18 98 bd
       -0.16669518 -0.16128281 0.18587546 -0.074266404
0000b0 24 1c 05 bc 39 80 4f 3d f9 a7 8d bd 9e 01 0b be
       -0.008124385 0.050659392 -0.06916804 -0.13574836
0000c0 05 f3 37 3d ce 12 01 3d e7 ef 2c be 88 0c df 3d
       0.044909496 0.031512074 -0.1688839 0.10891062
0000d0 f4 50 9a bd 78 5c 0a bd 3d 8b 14 be 49 ce 2b 3d
       -0.07534972 -0.03377959 -0.1450624 0.041944776
0000e0 58 2a 1f 3e 04 bc ba 3b b3 33 89 3d bc d4 45 be
       0.15543497 0.0056986827 0.06699314 -0.19319433
0000f0 e2 d1 b9 bc d9 da 43 be 92 d1 16 bd ed 67 07 3c
       -0.022683088 -0.19126453 -0.036820956 0.008264524

res_block1.0.weight f4 [64, 64, 3, 3]
000000 7c c4 39 bd d2 c5 ea 3c 21 e6 48 bd 69 fa 5d 3d
       -0.045353398 0.028658781 -0.049047593 0.054193888
000010 61 15 11 bc cd 9d 9a bc 38 0b 02 bd 67 62 b0 3b
       -0.008855195 -0.018874073 -0.03174898 0.005382824
000020 97 7e c2 bc d8 86 ef 3c 07 13 e5 bc fd 77 72 bc
       -0.023742003 0.029239103 -0.027963175 -0.014799115
000030 23 c8 e1 bc 9f 50 23 bd ae c0 80 bc 24 ad 2f 3d
       -0.027561253 -0.03987181 -0.015716877 0.04288973
000040 87 48 04 3d 3d e6 51 3d f6 54 79 3c 9b 50 3d 3c
       0.03229573 0.051244963 0.01521801 0.011554862
000050 ff 45 fb 3b d3 e9 b7 3c b8 a1 a2 bc 66 76 fc bb
       0.0076682563 0.022450363 -0.019852504 -0.007704544
000060 82 12 bd 3c 12 d0 f1 3c 74 45 3e bb fc 8f b2 3c
       0.023080114 0.029518161 -0.0029033097 0.021797173
000070 a5 70 07 bd fe ce f4 bc bc 65 13 bd 1b 16 b2 3c
       -0.03306641 -0.029883858 -0.035985693 0.021739056
000080 63 f2 2d bb d2 99 06 38 e6 1e f8 3b 55 01 9d 3c
       -0.0026542179 3.2091346e-05 0.0075720428 0.019165674
000090 7f 7f 4a bc c4 d1 8c 3b e7 d6 85 bc 94 ab 82 bd
       -0.012359499 0.004297467 -0.016337825 -0.06380382
0000a0 eb 03 65 bc 4b 64 1e bd c5 2f 01 3d b9 1d cd bc
       -0.013977985 -0.038669866 0.031539697 -0.025038587
0000b0 2b 65 37 3c e9 fb 13 3d 0a a1 ed bc 43 89 1f bb
       0.011193554 0.036128912 -0.029007453 -0.002434329
0000c0 c7 0d c7 bc 87 39 45 bc b6 df 60 bc c9 f8 8a 3d
       -0.024298562 -0.012037641 -0.013725212 0.06785733
0000d0 b9 99 41 3d 4d f0 10 3d b6 5a f3 3c 4e f2 07 3b
       0.047265742 0.03538542 0.02970634 0.002074379
0000e0 3f 0a ff 3c 00 2d ca bc bf 93 1f bd b3 79 23 3d
       0.031132815 -0.02467966 -0.03895926 0.039910983
0000f0 a5 98 02 3d 2e 71 39 3d cd 7f e9 bc 54 c5 76 bc
       0.031883854 0.045273952 -0.028503323 -0.015061695
000100 a5 dc 12 bc ab c9 94 bc 0d 05 30 bd 91 7f e8 3c
       -0.008963739 -0.018162569 -0.042973567 0.02838114
000110 33 63 c8 3b d6 c8 8a bc 81 c3 fd bc 58 e1 37 3c
       0.006115341 -0.01694147 -0.030977013 0.01122316
000120 69 14 4b bd 95 72 4c ba 6e 4a 22 bd 24 94 73 3c
       -0.04958001 -0.00077990565 -0.039621763 0.014866862
000130 cc df f4 bb c7 9b 0f bd 72 ce 4c ba 72 16 01 3d
       -0.0074729677 -0.03506067 -0.0007812745 0.031515546
000140 9f e2 51 3c 05 d9 68 bd a2 e4 df bc 36 ae 98 bd
       0.012810378 -0.05684759 -0.0273307 -0.07455103
000150 76 35 e6 bb ab 1c f7 bc bc 60 68 3d d5 a5 64 bc
       -0.007025416 -0.030165037 0.056732878 -0.013955553
000160 2b c4 1b 3c f5 c3 70 3c a5 e7 33 bc 23 90 90 bc
       0.009507219 0.014695157 -0.010980521 -0.017646855
000170 a5 f4 9b bc ff 22 86 bb d6 4c 0e 3d 72 bf 38 3c
       -0.019037554 -0.0040935273 0.034741245 0.011276113
000180 df 73 e9 3c 85 35 53 bb df d3 07 bd c2 79 b2 3b
       0.028497634 -0.0032227945 -0.03316104 0.0054466436
000190 dc 01 2e 3d 35 a9 81 3d 5c 7c 49 3b 4a d8 36 bd
       0.042482242 0.06331102 0.003074429 -0.044639863
0001a0 55 d8 3d bb 99 cf 60 3d 94 53 3b bd 4d 70 01 bb
       -0.0028968055 0.05488548 -0.045734003 -0.0019750774
0001b0 ed 4e 7d bb cc f8 46 3d e9 45 7a 3c ad 76 8d 3c
       -0.003865178 0.048577115 0.015275457 0.017268503
0001c0 6d 10 01 bd 4b 44 6f 3d 9a e1 06 3c 1b db 68 3b
       -0.031509805 0.05841474 0.008232499 0.0035530988
0001d0 52 77 fc b8 c6 be d2 3c 9f 75 7b bd 01 67 44 3d
       -0.000120385215 0.025725733 -0.06139147 0.047949795
0001e0 15 cc c9 3c 33 5b 2a 3d 5b 08 51 bc 02 a7 9b 3c
       0.024633447 0.04159088 -0.01275834 0.019000534
0001f0 e3 3f 09 bd 23 09 1b 3d 31 67 42 bd 84 dd 47 bc
       -0.033508193 0.03785051 -0.047461692 -0.0121988095
000200 5e 90 48 3c de 2b 0d bd 0c 1f a0 3c 21 8f d9 bc
       0.012241451 -0.034465663 0.019546054 -0.026557507
000210 9b db 31 3d bf 3f 2d bd a3 a3 1f bd cf 27 10 3c
       0.043422323 -0.04229712 -0.038974416 0.008798554
000220 4d 1f ca bc 62 96 94 bd 23 11 cc bb 90 8f e6 ba
       -0.024673129 -0.07255246 -0.006227629 -0.0017590392
000230 79 a5 7a 3c 70 52 0d bd 02 bf 66 bc 92 4c c3 bc
       0.015298241 -0.034502447 -0.014083626 -0.023840223
000240 b6 35 26 bd 05 bf 21 bd c8 b7 bf bd e8 05 f9 3b
       -0.040578566 -0.03948881 -0.09361225 0.007599581
000250 78 10 8e bd fc 36 10 bd 0a 8b 7c 3b 42 e1 31 bd
       -0.06936735 -0.035208687 0.0038535022 -0.043427713
000260 3a a3 88 ba 82 ac 95 bb c8 ad 5b bb 4d 04 6c bc
       -0.0010424622 -0.0045676837 -0.003352033 -0.014405322
000270 79 a3 88 3d 0a 56 29 3d d5 b1 33 bd a3 0a 24 bd
       0.06671805 0.04134182 -0.043870766 -0.040049206
000280 eb e1 3b bd 35 8a 94 3c 5e 59 78 bc 27 68 e2 3c
       -0.04586975 0.018132308 -0.015158026 0.027637554
000290 19 5c 16 3c 5a e8 86 3c 61 f5 2e 3d 3e 8b 27 3d
       0.009177231 0.016468216 0.04271448 0.040904276
0002a0 b2 e3 39 3d 5a 8f b1 3c 50 1e 5c bc ad 73 a7 3d
       0.045383163 0.0216748 -0.013434961 0.0817636
0002b0 fc 23 cc bb b2 fd 9d 3d e0 55 ef 3b 58 33 2e bd
       -0.0062298756 0.07714404 0.0073039383 -0.042529434
0002c0 bd 2e 5a 3b 33 63 9c 3c 70 e5 54 bd 4e 01 92 3b
       0.0033292018 0.01909027 -0.05197662 0.004455722
0002d0 3d bd 1b 3c 15 b4 90 bd 01 50 08 bd a4 b2 ee bc
       0.009505567 -0.07065598 -0.033279423 -0.029137917
0002e0 82 ac 04 bc 9c 37 97 bc 1e e2 3f 3d be 0b 92 3d
       -0.00809777 -0.018459134 0.0468465 0.07131146
0002f0 6f 93 91 3a c5 42 be bc 28 e4 dc bc 76 63 42 3b
       0.0011106561 -0.023225198 -0.026964262 0.0029661334
000300 3c 71 ae 3c d7 9d 18 bc 71 b1 f5 bc 3e 7d d5 bc
       0.021294229 -0.009314976 -0.029991837 -0.026060697
000310 85 63 3d bd 9d 28 8c 3c f1 d4 d0 bc 10 78 c7 bc
       -0.046237487 0.01710921 -0.025492163 -0.024349242
000320 53 03 2a bc 49 69 1e bd de 99 a3 3c 87 af b5 3c
       -0.010376769 -0.038674626 0.01997083 0.022178425
000330 8e a3 8d bd 56 c3 26 3d 48 c9 ca 3c c8 3a 12 bd
       -0.06915961 0.04071363 0.024754182 -0.03570059
000340 92 80 85 3b 52 7a c9 bc 2f e8 6a 3c c4 b1 5c 3c
       0.0040741647 -0.02459446 0.014337583 0.013470117
000350 93 32 8f 3c af 6d 13 3d bf 76 0d 3d c3 ec 4c bc
       0.01748017 0.035993274 0.034537073 -0.01250762
000360 f9 55 05 3c 69 2d 5f 3c 78 b2 be 3c bd 14 51 bb
       0.008138173 0.0136216665 0.02327846 -0.003190323
000370 8d ad 69 3c 8e 98 82 bc 6e 5f 80 3c 5c 2e 6e bc
       0.014262569 -0.015941884 0.015670504 -0.01453742
000380 76 87 34 ba b3 6d 1f 3c eb 05 0a bd 96 2a 4e 3d
       -0.00068866403 0.009730744 -0.03369705 0.050333582
000390 af ca a9 ba 24 c7 78 3d 85 ac 23 3d b4 60 1c 3d
       -0.0012954081 0.06073679 0.03995945 0.03817816
0003a0 90 4b 8a 3c 22 5e 4d 3d 89 8d 1a bb 67 3e 0c bd
       0.016881734 0.0501386 -0.0023582897 -0.0342392
0003b0 c7 8b 54 bc 61 88 0c bd da e5 c0 bb 74 2f 82 3c
       -0.012972779 -0.03430975 -0.0058867754 0.015891768
0003c0 4e 5a b4 3c f1 3a 48 bc 6b 41 71 bc 86 a2 6e bd
       0.022015717 -0.012221084 -0.0147250695 -0.058260463
0003d0 76 c3 d6 3c dc 7e a6 bb fc 0f 25 3d 2a b1 4b 3d
       0.02621625 -0.005081041 0.040298447 0.049729504
0003e0 1d 24 33 3b 74 cf 38 bc f5 dc ac 3c 6e d0 6d bc
       0.0027334758 -0.011279929 0.021101454 -0.014515026
0003f0 26 b4 b0 bc f8 7e 3a bc 97 2b 7e bd 47 9a af 3c
       -0.021570276 -0.011382811 -0.06205329 0.02143587

res_block1.0.bias f4 [64]
000000 0a fd 79 bc 99 55 fb bc 00 26 dc 3b 42 68 bd 3c
       -0.015258083 -0.030680465 0.006718397 0.023121003
000010 a2 a4 0f 3d 7b f8 1c 3d 35 08 49 bc b9 ad ca 3c
       0.035069115 0.038322907 -0.012270023 0.02474104
000020 98 56 bd 3c cf 69 d0 3c e6 61 2c 3c 2e 08 36 3d
       0.02311258 0.025441078 0.010521388 0.044441395
000030 e8 c6 0d 3c b7 ff 8a bc d0 3c 6d bc c4 1f 84 3c
       0.00865338 -0.016967637 -0.014479831 0.016128428
000040 8d a7 94 bc 08 11 4d 3d f8 01 df 3c 92 f0 21 bd
       -0.0181463 0.05006507 0.027222618 -0.039536066
000050 ee d0 6c 3c b3 c2 45 3d 85 5c 86 3b 2d eb 2e 3c
       0.01445411 0.048281383 0.0041003847 0.010676187
000060 e5 23 2c bd 54 02 85 bc 48 a9 3c bb 18 63 f6 bc
       -0.04202642 -0.016236462 -0.0028787423 -0.030076548
000070 0c 54 6e bc 40 5a d2 bc 12 74 1a 3c fe a5 dc bc
       -0.0145464055 -0.0256778 0.009427087 -0.02693462
000080 7e 0d 89 3c a0 00 94 3b 6f 11 b6 bc d9 65 61 bd
       0.016730066 0.004516676 -0.02222511 -0.05502877
000090 e7 f5 02 bd 4b 42 52 bb 0a 41 3a bd 32 a8 a3 b9
       -0.031972792 -0.003208297 -0.045472182 -0.00031215098
0000a0 78 ef 43 3c 5a 31 80 bc 60 23 e5 3c 47 2e d8 3c
       0.011958949 -0.015648533 0.02797097 0.026389254
0000b0 8e 87 14 bc a4 e4 84 3d e9 34 6d 3d f5 e4 4a bd
       -0.009065522 0.06488922 0.057911787 -0.049534757
0000c0 bb 30 12 3d 80 d5 d9 3c 7c 95 33 bd 55 11 04 bd
       0.035691004 0.026591063 -0.04384373 -0.03224309
0000d0 31 63 b9 bb de 2b 6f 3b 78 0b 9d 3c 38 e8 03 bd
       -0.0056575765 0.0036494653 0.019170508 -0.032203883
0000e0 b0 91 a8 3c 91 f7 01 3d a6 d8 19 3d 2e 77 66 bb
       0.020577282 0.03173024 0.037560128 -0.0035166251
0000f0 e3 65 d7 3c a9 0a cb bc 2b 16 4a bd a8 47 91 3c
       0.0262937 -0.024785357 -0.049337547 0.017734364

res_block1.1.weight f4 [64]
000000 41 95 82 3f 92 6d 81 3f af 41 7a 3f cc 56 81 3f
       1.0201799 1.0111563 0.97756475 1.0104613
000010 8c 24 85 3f 44 0c 80 3f f1 d5 78 3f 1d de 78 3f
       1.0401778 1.0003743 0.9720145 0.9721392
000020 00 26 84 3f e0 5c 84 3f 3a 55 7c 3f 24 34 81 3f
       1.0324097 1.0340843 0.98567545 1.0094037
000030 56 1a 7c 3f 5b 4d 78 3f fc 02 78 3f 4d 37 80 3f
       0.98477685 0.96993035 0.96879554 1.0016876
000040 0c 33 78 3f e4 e9 7d 3f a9 43 80 3f 89 10 87 3f
       0.9695289 0.99185014 1.0020648 1.0551921
000050 14 c2 80 3f 93 5e 75 3f ca a2 7d 3f e9 8b 81 3f
       1.0059228 0.95847434 0.9907652 1.0120822
000060 29 35 80 3f 6f ee 78 3f 1a 6e 83 3f 34 f5 81 3f
       1.0016223 0.9723882 1.0267975 1.0152955
000070 14 73 7e 3f 4d 24 7b 3f 85 85 7a 3f b3 16 71 3f
       0.99394345 0.98102266 0.97859985 0.9417526
000080 0e 50 79 3f e8 44 78 3f 60 16 74 3f e7 50 81 3f
       0.9738778 0.9698014 0.9534664 1.0102814
000090 89 f0 78 3f 57 7c 83 3f 43 78 83 3f 82 55 82 3f
       0.9724203 1.027232 1.0271076 1.0182345
0000a0 1a f1 7d 3f 01 01 84 3f 7e 1b 73 3f dc ce 7b 3f
       0.99196017 1.0312806 0.94963825 0.9836252
0000b0 19 62 81 3f 3c c2 82 3f 64 14 80 3f d9 69 7a 3f
       1.0108062 1.0215526 1.0006223 0.9781776
0000c0 de 04 79 3f 61 31 82 3f 87 f7 75 3f e3 83 7c 3f
       0.9727305 1.0171319 0.9608082 0.98638743
0000d0 dd fb 86 3f d8 28 76 3f 91 23 82 3f d7 c8 82 3f
       1.0545613 0.9615607 1.0167104 1.0217541
0000e0 26 34 7d 3f 1a 88 82 3f 8b 0a 81 3f 28 b2 83 3f
       0.989077 1.0197785 1.0081342 1.0288744
0000f0 76 c2 81 3f 79 04 78 3f 65 0b 7e 3f ee d3 77 3f
       1.013747 0.96881825 0.99236137 0.96807754

res_block1.1.bias f4 [64]
000000 74 31 a0 3b 8b d0 dc bb 2a b7 80 bd 42 bb b1 bc
       0.004888708 -0.0067387274 -0.06284936 -0.021695737
000010 22 92 ce bc 1f e6 af bc 6c 16 6d bc 18 0b 15 bd
       -0.025216166 -0.021472035 -0.014470678 -0.036387533
000020 77 7a 30 ba 52 52 2a bc f0 7d 16 bd 45 22 42 bd
       -0.0006732116 -0.010395603 -0.036741197 -0.047395963
000030 6d 94 88 bb 60 63 6e bd b7 df 3e bd e2 8d 4f bd
       -0.0041680844 -0.05820024 -0.04660007 -0.05067242
000040 8a e3 6a bc 37 96 7b bd 3d fa 67 3c 58 12 50 bb
       -0.014336476 -0.061422553 0.014158783 -0.0031749215
000050 47 82 27 bd c6 7f 60 bd ef a8 24 bd 23 4c 36 bd
       -0.040895727 -0.054809354 -0.04020017 -0.044506203
000060 a1 84 46 bd 90 b5 5b bd 88 7c 89 bc fb 5b 94 3b
       -0.04846633 -0.05363995 -0.016783014 0.0045275665
000070 b3 36 32 bd 95 a4 6f bd 15 9d bf bc 23 e3 8f bd
       -0.043509196 -0.058506567 -0.023390332 -0.07025745
000080 45 e3 8c bd 0f 1e 16 bd 8c 0b 4d bd 7b 8e 1b 3c
       -0.06879286 -0.03664976 -0.05005984 0.009494419
000090 ba 1d 40 bd d1 03 ac 3b 85 da d5 3b 61 9e 6a bc
       -0.04690335 0.0052494784 0.0065262937 -0.014319987
0000a0 94 91 8a bd d4 ca ba bc c7 38 d6 bc 55 95 83 bd
       -0.06766048 -0.022801794 -0.02615012 -0.06424967
0000b0 8e 6e 03 bd 28 e9 6c bc 67 bb 12 bc 8e 33 ca bc
       -0.032087855 -0.014459886 -0.008955813 -0.024682786
0000c0 25 da fc bc a8 8f fc bc 50 bb f2 bc 26 a0 29 bd
       -0.030865738 -0.03083022 -0.029630333 -0.041412495
0000d0 0a ec 73 bc 39 bd 0e bd b7 57 fb bc e2 21 4a bd
       -0.014887819 -0.034848426 -0.030681474 -0.04934872
0000e0 d5 d6 4f bd 3b 2c a2 bb 4d ed 3e bd 41 e2 c9 bb
       -0.05074199 -0.0049491203 -0.046613026 -0.006161005
0000f0 2f d3 f7 bb 9c 64 55 bd 43 a2 34 3a 85 57 1b bd
       -0.007563017 -0.0520979 0.0006890634 -0.037925262

res_block1.1.running_mean f4 [64]
000000 b5 81 28 bd 09 ae b0 bd 16 e6 b3 bd 2c 0d a8 bd
       -0.041139323 -0.086269446 -0.0878412 -0.08205637
000010 92 56 88 3d d6 00 93 bd 14 c1 92 be c0 66 27 3e
       0.06657137 -0.07177894 -0.28662932 0.1634779
000020 41 60 2b 3d 19 dc 3a 3d bc 5c e2 bd 17 60 b9 3c
       0.04183984 0.045620058 -0.11052844 0.022628827
000030 a3 63 c9 3d 54 fc d1 bc 49 7f 8c 3e 4f 43 b0 bd
       0.09833457 -0.025633015 0.2744086 -0.08606588
000040 fa f1 8b be 76 3b c8 3d a7 5e 03 be 96 5a 04 bd
       -0.2733305 0.09776966 -0.12829076 -0.032312952
000050 e8 49 44 be c3 74 96 3e c2 f5 0c bc 7e ea 26 be
       -0.19168818 0.29385957 -0.008603515 -0.16300389
000060 5c 08 8d 3d 94 25 76 bc d0 0b cb 39 0c 23 38 be
       0.0688636 -0.015023608 0.00038727978 -0.1798212
000070 8e 85 ac 3d dd 35 29 3d 76 4f 1c 3c 2a bc aa be
       0.08423911 0.041311134 0.009540429 -0.33346683
000080 fd 89 71 3d 3f b4 c6 bc 91 fe 73 3d 16 6f ab bd
       0.058969487 -0.02425587 0.059568945 -0.08370797
000090 d8 c8 15 be 0a a4 1b be 84 c7 87 bc 4c c0 36 be
       -0.14627397 -0.15199295 -0.016574629 -0.17846793
0000a0 66 15 af 3d 7b 7e e5 bc ef e1 35 be d3 8b 47 be
       0.08549003 -0.028014412 -0.17761968 -0.19486932
0000b0 8b d2 58 bc 1c f1 ea bc 2a a0 75 3e e1 db 38 be
       -0.013233791 -0.028679423 0.23986879 -0.18052627
0000c0 79 6c 5e 3d 06 e9 10 bd de 3d fc bd ba e5 bb 3d
       0.054302666 -0.03537848 -0.12316488 0.09174676
0000d0 97 ef be bd 54 d8 49 be a7 d7 81 bc 3a 23 85 3d
       -0.09323042 -0.19711429 -0.015849901 0.065008596
0000e0 5c 5f 2e be 0e 04 2f 3d cc fd 07 3e e2 cc bb 3d
       -0.17028564 0.042728476 0.1328041 0.09169938
0000f0 e9 63 04 3e 26 c5 28 3e 75 e9 eb bd 7c 2a 48 3d
       0.12928738 0.16481456 -0.11519138 0.04886864

res_block1.1.running_var f4 [64]
000000 0b f8 b5 3c 5d b7 5d 3c 92 95 86 3c b2 63 93 3c
       0.022213003 0.013532487 0.016428743 0.017991874
000010 49 15 cc 3c f7 ea 76 3c 50 2b c3 3c 22 3c 7a 3c
       0.024912493 0.015070668 0.023824364 0.015273126
000020 79 e4 94 3c a2 6f 47 3c 54 3e 8c 3c 41 bf 9e 3c
       0.01817535 0.012172611 0.017119564 0.019378306
000030 a8 b5 69 3c bb 70 87 3c 68 ea e2 3c d0 df 54 3c
       0.014264502 0.016533246 0.027699664 0.012992814
000040 bb 3f 04 3d a5 da 96 3c c8 2d 00 3d f7 db 5b 3c
       0.03228734 0.018414805 0.03129366 0.013419143
000050 e6 49 90 3c 94 1a c6 3c 3d 3a 47 3c 6d 2d 7f 3c
       0.017613363 0.024182595 0.012159881 0.015574795
000060 60 a6 3e 3c 28 ce 93 3c 00 bb 49 3c ff e6 4b 3c
       0.011636347 0.018042639 0.012312651 0.0124452105
000070 e7 0b 68 3c 9e 39 88 3c 7f 0e 63 3c f0 fa e3 3c
       0.014162994 0.016629037 0.013858437 0.027829617
000080 75 3e 9a 3c 92 66 e5 3c ba 79 8e 3c 98 99 9a 3c
       0.01882861 0.02800301 0.017392028 0.018872067
000090 73 e0 73 3c 51 8a 73 3c d1 01 49 3c e1 1d b1 3c
       0.014885056 0.01486452 0.0122684995 0.021620693
0000a0 c6 89 88 3c 71 d0 8d 3c 39 24 dd 3c a4 ab 97 3c
       0.016667258 0.017311307 0.026994811 0.018514462
0000b0 c4 65 81 3c a0 45 92 3c d5 13 8f 3c 6e 7b 90 3c
       0.015795596 0.017855465 0.017465511 0.01763698
0000c0 b9 19 b0 3c 09 5a 8c 3c 53 2f bb 3c dd c9 6c 3c
       0.02149664 0.017132776 0.022849714 0.014452425
0000d0 c9 0e 70 3c 84 fa 7c 3c e8 41 89 3c b0 0f 9f 3c
       0.014651963 0.015440587 0.01675506 0.01941666
0000e0 83 1c bd 3c 49 c2 52 3c ac c6 93 3c 88 7b 32 3c
       0.023084885 0.012863704 0.01803907 0.01089371
0000f0 69 f0 f3 3c 27 0b ad 3c 67 e7 98 3c 61 73 c1 3c
       0.029777722 0.021123482 0.018665029 0.023614587

res_block1.3.weight f4 [64, 64, 3, 3]
000000 28 65 e4 3c 75 0b c9 3c 5c 43 e1 bb a6 3e 00 3d
       0.027880266 0.024541596 -0.006874485 0.031309746
000010 22 83 b5 bb 42 a5 27 3c fb 46 43 3d 25 77 ad ba
       -0.005539314 0.010232272 0.047675114 -0.001323436
000020 0f 4d df 3c 2d 60 5d 3d 77 cd ae bc f8 87 8f 3c
       0.027258424 0.0540468 -0.021338208 0.01752089
000030 68 9d 01 3d 8a 95 83 3c 6c 27 e9 3c 4b a8 22 3d
       0.031644255 0.016062517 0.02846118 0.039711278
000040 db 35 96 3b a6 44 83 b9 cb 19 d0 3b bf dc 66 3c
       0.004584057 -0.00025037414 0.006350731 0.014090716
000050 14 54 50 bd 6a fc bc bc 8b 21 cf bb 2f f4 f7 bc
       -0.050861433 -0.02306958 -0.0063211373 -0.030267803
000060 4a 9d c7 3c 51 c6 04 bd 0c d5 b9 3b 6c 43 e0 3c
       0.024366993 -0.03241569 0.005671149 0.0273759
000070 83 74 4e bd fc 3a 1c 3d e7 68 e2 3c 76 f8 f1 bc
       -0.050404083 0.03814219 0.027637912 -0.02953742
000080 3f 11 f4 3c 74 c7 51 bc f2 59 66 bd 30 13 30 bd
       0.02979338 -0.012803901 -0.056238122 -0.04298705
000090 23 44 b6 3b a3 e5 d0 bc ee 3e 41 3d af 7d 88 3b
       0.0055623217 -0.025500124 0.047179155 0.0041653733
0000a0 ba 36 cc bc 6e 12 e8 3c 89 18 01 bc 61 f1 0e bd
       -0.02492844 0.0283291 -0.007879385 -0.034898166
0000b0 35 b2 1e 3d 20 ac 58 3d 67 dd cc bc 15 6c ad 3b
       0.03874417 0.052898526 -0.025007917 0.0052924254
0000c0 a9 bf e4 39 29 ce c0 3c c7 8d 7e bc 0f 9c 84 3c
       0.00043630347 0.023535805 -0.015536732 0.016187696
0000d0 5c 6b 1b 3d e3 f1 f1 3c 68 69 f2 bc 19 a0 aa 3b
       0.037944183 0.029534286 -0.029591277 0.0052070734
0000e0 19 f3 0c bc aa 7c d4 bc 24 3c 6c 3b 28 95 4e bb
       -0.008602881 -0.02593835 0.0036046589 -0.003152201
0000f0 bc f1 f1 3c b7 ec 56 3d c9 a6 1e bd 38 97 d6 3c
       0.029534213 0.052471843 -0.038733277 0.026195154
000100 03 4d 12 3d e9 a6 39 3d 50 2b a1 3c 3a 38 03 bd
       0.035717975 0.045325194 0.019673973 -0.032036044
000110 65 f7 43 bc f4 75 ad 39 eb 3c 41 bd cc 3c fb bc
       -0.011960839 0.00033085013 -0.047177237 -0.030668639
000120 95 01 8b bd 18 c6 63 bd 7e f5 c6 3c 68 f0 46 3c
       -0.06787411 -0.05560884 0.024286982 0.012142278
000130 cc a8 44 3d 7b 33 ba 3c 75 11 0d 3d fc 40 04 3d
       0.04801254 0.022729626 0.034440476 0.032288536
000140 f9 ad fc bc 67 c0 ab b9 b0 a9 18 3c 30 e0 08 bc
       -0.030844675 -0.00032759013 0.0093178 -0.008354232
000150 d5 a8 ce bc 66 7c 93 bc ab 53 ea 3c 84 fb 3e bd
       -0.02522699 -0.018003654 0.02860435 -0.046626583
000160 0d b4 f2 3c 41 bf e0 3c 6c 1f 99 bb 37 9f ea 3c
       0.02962687 0.027434947 -0.004672935 0.028640373
000170 b3 7b d6 bc 9a b5 49 bd 01 86 f5 3c 52 e7 8f 3a
       -0.026182031 -0.049245454 0.029971125 0.0010978973
000180 a4 0d 39 bc be 25 8a bc 00 b1 ed 3c 0d 71 18 bd
       -0.011294756 -0.0168637 0.029015064 -0.03721719
000190 8c d5 be 3c 1d a3 18 bd 87 7e d4 bc ae 31 a0 3c
       0.023295186 -0.037264932 -0.02593924 0.01955494
0001a0 7b c6 26 bc fa 38 7d bc 11 af 5f 3c 85 12 c0 3c
       -0.010179157 -0.015455479 0.013652579 0.02344633
0001b0 fb f7 a6 bc 76 15 ab 3c 86 ff 96 bc 9d b0 76 bc
       -0.020381918 0.020884257 -0.01843239 -0.015056756
0001c0 5a d1 63 bd d9 44 ef 3c 61 5f 78 bb 8b fe 36 3a
       -0.055619575 0.029207634 -0.0037898647 0.0006980679
0001d0 01 01 1a 3d 48 2b 25 3d 29 39 85 bb d3 29 63 3c
       0.037598614 0.04032448 -0.004065652 0.013864952
0001e0 8a 72 4f 3d d2 a4 22 bd 47 30 0c bc 90 e6 d7 3c
       0.050646342 -0.039707966 -0.008556432 0.026355058
0001f0 65 cc ab 3c 48 2d 83 3c da 40 18 3d 5b 24 a5 3c
       0.020971486 0.016012803 0.037171222 0.020158937
000200 dd 75 02 3d 1b a0 67 bc b6 f6 88 bc c0 34 40 3c
       0.031850684 -0.014137293 -0.016719203 0.011731327
000210 86 7a 0e 3c 36 4d a9 bc 58 2f 52 bc 8d 1c 45 bd
       0.008696204 -0.0206667 -0.01282867 -0.04812293
000220 f7 eb a6 bc 75 1b 03 bd bc 24 f6 3a 12 42 1d 3c
       -0.020376189 -0.032008607 0.0018779258 0.009598272
000230 dd 0a 06 3d 16 e6 38 bd 9a 3f 42 3c 66 0c 47 3c
       0.032725204 -0.045141302 0.011855984 0.012148952
000240 8f 0b ff 3c 91 cd 0f bc 10 a6 c4 3c 18 51 03 bd
       0.031133441 -0.008777038 0.024004966 -0.03205976
000250 4c 99 0d 3d 65 f9 8c ba 5a ad f3 3b 83 d4 1c bb
       0.034570023 -0.0010755478 0.0074364366 -0.0023930378
000260 ee 86 24 bd 9b 53 a5 3c c2 ad f2 3b 37 b2 da bc
       -0.04016774 0.020181468 0.0074059675 -0.026696308
000270 ff ea 04 3b 29 41 12 3d ae 0c 6c 3d f7 f5 2b bd
       0.002028167 0.035706673 0.05762928 -0.041982617
000280 a5 fc 13 3d fb fb 0f 3c d6 f5 5e 3b 4f 5f ec bc
       0.036129612 0.008788104 0.0034021041 -0.02885404
000290 70 bf 54 bc e5 73 1b bc d2 d8 17 3d 50 4f d6 3b
       -0.012985095 -0.009488081 0.03707201 0.0065402165
0002a0 59 96 61 3a 89 14 95 bc cd 52 f5 bc e2 a4 37 3c
       0.00086054724 -0.018198268 -0.029946709 0.011208745
0002b0 57 ab 8f 3c d4 28 0f 3c 3c ac 25 3d 19 c8 d3 3b
       0.017537756 0.0087377615 0.04044746 0.0064630625
0002c0 ef 70 72 3c cb bd 18 3c cb fa b8 bd 08 24 37 3d
       0.014797433 0.009322594 -0.0903221 0.044712096
0002d0 18 9d 0a bd 06 cf 3c bd 27 32 a7 bc 9e 59 41 bc
       -0.033841223 -0.04609587 -0.020409657 -0.011801152
0002e0 1f f0 da 3b 4d 49 e2 bc ef 67 98 bc 83 35 89 bc
       0.0066814567 -0.027622843 -0.018604247 -0.01674915
0002f0 af 54 0a ba 28 8f 03 3d 04 5f e9 3c e2 d5 54 bd
       -0.0005276901 0.032118946 0.02848769 -0.051961787
000300 e7 0d 36 bd f1 e8 0c 3c 41 49 3b 3b 24 b2 60 3c
       -0.044446852 0.008600459 0.0028577598 0.013714347
000310 de 1d f0 bc b3 64 c1 39 53 2f 6b 3c 89 68 cd bc
       -0.029311117 0.00036886855 0.014354545 -0.02507426
000320 cc 16 10 3d 6e 08 90 3c b9 d7 ae 3c 60 e9 59 bc
       0.03517799 0.017582145 0.021343099 -0.01330027
000330 36 a6 ad 3c ac 54 44 bc ad e0 85 bb da 96 9a 3c
       0.02119742 -0.011983078 -0.0040856213 0.01887076
000340 a3 d3 3b bd c5 6e 71 bd 75 0f 69 3d 1b 2c c6 bc
       -0.04585613 -0.05894353 0.056899507 -0.024190953
000350 0f be 05 3d 13 2e 02 3d 3b a2 f6 bc a1 79 67 3c
       0.032651957 0.03178222 -0.030106654 0.01412812
000360 b3 30 6e 3c 20 41 2d bd 98 73 58 bb 23 69 e1 bc
       0.014537978 -0.042298436 -0.0033027884 -0.027515953
000370 7b b8 95 bc df e6 f1 bc 21 b9 21 bb 6d 7b de bb
       -0.018276444 -0.029529033 -0.0024676996 -0.006789616
000380 67 3e 0c bb 44 43 27 3c 74 de 2c 3d 6f 39 3f bd
       -0.00213995 0.0102089085 0.042204335 -0.046685632
000390 13 8f 66 bd d4 5b 7d 3c 78 40 22 3b 9c 41 56 3c
       -0.05628879 0.015463788 0.0024757665 0.013077166
0003a0 1a 3a a3 bb 00 b2 8b bc 8b 4e 7d 3d f5 b0 2b 3d
       -0.0049812915 -0.01705265 0.061842483 0.041916806
0003b0 3c 49 d2 3b ca 05 1f bc 6b 09 cd 3b 8b f4 55 3c
       0.0064174216 -0.00970597 0.006257226 0.013058792
0003c0 92 70 f4 3c 5c b0 01 bc c9 f2 07 3b ea 07 d3 3c
       0.029838834 -0.0079155825 0.0020744076 0.02576061
0003d0 4a 33 03 3d 60 b8 b6 3b 4c 98 3e bd 09 d0 bc bb
       0.032031335 0.0055761784 -0.04653196 -0.0057621044
0003e0 93 bb fa bc 8d a3 9c 3c 83 05 31 bd 1d df ec bc
       -0.03060702 0.019120956 -0.043218147 -0.028914982
0003f0 7c 36 64 3c b2 8f f2 3c 3f 20 04 3d 01 3f 30 3d
       0.013929006 0.029609535 0.032257315 0.043028835

res_block1.3.bias f4 [64]
000000 93 20 18 3c 3d 40 2a bd 6a 3a e8 b9 3b d3 97 bc
       0.00928511 -0.04156517 -0.0004429401 -0.01853334
000010 4e 30 0d bd d4 7e 29 bd e5 ba 2f bd 1b 43 f1 3b
       -0.034469895 -0.04138072 -0.042902846 0.007362736
000020 f5 6d 77 3c 91 3e c9 bc 88 f6 3b 3d 48 23 01 3d
       0.015101899 -0.024565967 0.045889407 0.031527787
000030 85 8b 4c bc 9b f4 c9 3c 12 03 26 bd 3d 4c 4a 3d
       -0.012484436 0.02465277 -0.04053027 0.049389113
000040 c0 35 d0 bc a3 c8 c8 bc 28 f8 ab 3b e7 ed 50 bd
       -0.025416255 -0.024509734 0.0052480884 -0.05100813
000050 43 49 d2 bc a3 e0 9f 3c 33 01 d4 3b 7a f4 a1 3c
       -0.0256697 0.019516295 0.0064698695 0.019769896
000060 25 e6 ca bc d8 71 aa bc e0 39 25 bc da 21 56 bc
       -0.024767945 -0.020806238 -0.010084599 -0.013069594
000070 94 34 8a 3c 23 e8 4f 3d ff 56 91 bb d6 6d 91 3c
       0.016870774 0.050758492 -0.0044354196 0.01775257
000080 22 bc ff bb c5 9b 93 3c 99 e0 61 bd 93 11 de bb
       -0.0078044096 0.018018613 -0.055145834 -0.0067769974
000090 d5 8a 9e ba 7f 94 06 bd ca 6d 9e 3c fc ae 12 3c
       -0.0012095819 -0.03285646 0.01933946 0.008952852
0000a0 f8 10 0b 3d 01 73 ab bc 52 10 23 bd 6f dd 05 3c
       0.03395173 -0.020928862 -0.039810486 0.00817047
0000b0 dd b1 0e bd 14 65 a1 bc 75 f7 01 bc 93 1d 0c bd
       -0.034837592 -0.019701518 -0.0079325335 -0.03420789
0000c0 23 d7 b8 3c 90 1b 0e bd 81 25 b7 3c 9c d7 e9 bc
       0.022563523 -0.034694254 0.02235675 -0.028545193
0000d0 d6 24 c3 bb 47 c5 1c 3d c4 89 3c bc 57 68 18 bd
       -0.005955319 0.038274076 -0.011507455 -0.03720888
0000e0 b3 b6 e3 3c a2 1e c1 bc 6a 09 84 bc 90 12 41 bd
       0.027797079 -0.023574177 -0.01611777 -0.047136843
0000f0 0f 1b cf bc 35 cd 50 3d 0a 2f 40 3c d8 40 0d 3d
       -0.025281457 0.05097695 0.011729965 0.034485668

res_block1.4.weight f4 [64]
000000 bc fa 81 3f a9 cf 85 3f a2 8b 81 3f 03 ad 84 3f
       1.0154643 1.0453998 1.0120738 1.0365299
000010 85 26 84 3f 81 a3 7c 3f af f7 84 3f 1c 65 82 3f
       1.0324255 0.9868699 1.0388087 1.0187106
000020 1d 18 80 3f 20 50 84 3f 11 18 7b 3f 8a ea 82 3f
       1.0007359 1.0336952 0.980836 1.0227826
000030 12 6b 82 3f 9e 30 83 3f 40 fa 83 3f eb 47 81 3f
       1.0188925 1.0249212 1.0310745 1.0100073
000040 7d 93 82 3f b9 08 85 3f 5a ac 81 3f 63 4d 84 3f
       1.020126 1.0393287 1.0130723 1.0336117
000050 09 30 82 3f 14 9a 7b 3f d2 da 7a 3f 2c 03 84 3f
       1.0170909 0.9828198 0.97990143 1.0313468
000060 12 79 88 3f 65 b5 7c 3f d4 83 80 3f a6 c7 7d 3f
       1.0661948 0.98714286 1.0040231 0.99132764
000070 44 fe 82 3f 5e dd 7d 3f fb a2 80 3f b3 56 81 3f
       1.0233846 0.99165905 1.0049738 1.0104584
000080 8b 0f 82 3f ff 6a 81 3f 49 7b 83 3f 2e e0 80 3f
       1.0160993 1.0110778 1.0271999 1.0068414
000090 71 cb 82 3f ad c0 83 3f b9 60 85 3f fc 9a 83 3f
       1.0218335 1.0293175 1.0420142 1.0281672
0000a0 5e e1 85 3f 56 7b 84 3f d0 ad 7b 3f 22 93 7e 3f
       1.0459402 1.0350139 0.9831209 0.99443257
0000b0 3e df 82 3f be 05 7e 3f 4b b3 7d 3f 96 78 80 3f
       1.0224378 0.9922751 0.99101704 1.00368
0000c0 10 6c 85 3f 9a 7b 83 3f f5 e2 7c 3f b6 0a 80 3f
       1.0423603 1.0272095 0.9878381 1.0003269
0000d0 1a 9c 89 3f e6 0a 89 3f cc 2d 83 3f 44 a5 80 3f
       1.0750763 1.0706451 1.0248351 1.0050435
0000e0 21 e2 7a 3f c9 3a 7c 3f 76 d6 7d 3f 88 da 85 3f
       0.98001295 0.985272 0.99155366 1.0457315
0000f0 74 71 7d 3f ec 65 7f 3f 66 0f 82 3f c8 5b 7c 3f
       0.9900124 0.99764895 1.0160949 0.9857755

res_block1.4.bias f4 [64]
000000 ee 69 a5 3c 9d 8a c5 bc 9b dc 10 bb 64 19 ea ba
       0.020192113 -0.024113948 -0.0022104147 -0.001786035
000010 5e 26 09 3c a8 83 88 3c 4c 41 8b bc b8 37 03 3d
       0.008370964 0.016664341 -0.01699891 0.03203556
000020 ce 90 84 3c b2 ab 07 3b b4 3a a5 ba ff f7 0d bd
       0.01618233 0.0020701704 -0.0012605996 -0.034660336
000030 28 1b e3 3b 3a 66 8d 3c 2d e1 26 bc 3c 9b e8 3b
       0.0069307275 0.01726066 -0.010185522 0.0070985835
000040 56 ff 65 3c 1a 5b ba 3c d2 a3 09 bb d6 6e 32 3d
       0.014037928 0.022748519 -0.0021002186 0.043562733
000050 dc 54 9b bc 92 78 ad 3b 13 4d b8 3c 44 7a 1b ba
       -0.018961363 0.005293914 0.02249769 -0.0005931
000060 c3 12 38 bc ad 53 1f 3c 3b 64 54 3c 85 44 98 bb
       -0.011234942 0.00972454 0.01296335 -0.00464684
000070 86 4c 01 bb 64 03 99 3c dd 05 91 3c e1 09 a0 bb
       -0.001972945 0.018678375 0.017702991 -0.00488399
000080 51 0c 38 bd fe 35 39 bd 16 86 08 bc f2 c2 0d 3d
       -0.04493362 -0.045217507 -0.00833275 0.034609742
000090 a1 38 ec 3b 70 c8 df bc ad d7 aa 3b c6 e7 df 3c
       0.007208899 -0.027317256 0.005213699 0.027332198
0000a0 e5 d9 a2 bc 18 fd ec 3c 9d 09 97 3c a5 c0 7b 3b
       -0.01987929 0.028929278 0.018437201 0.0038414386
0000b0 54 0d 07 3d 4a a8 de bc f1 74 2c 3d d6 3b 5d 3c
       0.032971695 -0.027179856 0.04210371 0.0135030355
0000c0 0c 08 9f 3c 35 ea 1d bd fa fe a8 bc 5f 7c ef bb
       0.019413017 -0.038553435 -0.020629395 -0.0073085274
0000d0 8c 81 71 3c da d4 2b bc 48 2d 70 ba 06 9d 2f bc
       0.014740359 -0.0104877595 -0.0009162021 -0.01071859
0000e0 b3 36 ac bc 48 b4 04 3d 09 b4 ce bc 7e d3 33 bc
       -0.021022176 0.032398492 -0.025232332 -0.010975717
0000f0 7e 21 fd 3c 92 8c 45 3a d4 bd ef 3c ed a7 15 bc
       0.03089976 0.00075359 0.029265322 -0.009134275

res_block1.4.running_mean f4 [64]
000000 96 5a 8c 3c 54 d1 8b bd bb 2a 43 be 76 b5 8d be
       0.017133038 -0.068270355 -0.19059269 -0.27677506
000010 26 49 87 bd 5f 4d df 3e 68 6b a5 bd 85 8c 10 bd
       -0.06605749 0.43613717 -0.08077127 -0.03529026
000020 71 01 a6 3d 65 33 52 be 35 0c b6 bd 18 65 98 3e
       0.08105744 -0.20527418 -0.08889047 0.29764628
000030 0a b5 c8 be 17 61 38 3e f2 8b 61 bd 9a 7b fa bc
       -0.39200622 0.18005787 -0.055065103 -0.030576516
000040 52 86 0a 3e b0 72 80 3e 22 01 e3 3e 2e fb 53 3c
       0.13527802 0.250875 0.44336802 0.012938304
000050 14 cc 26 bd 7a 1f 17 bc 0a 89 49 3e 11 c7 36 bd
       -0.040721968 -0.009223813 0.19681183 -0.04462344
000060 78 f6 82 3e 02 4c f3 bc 9c ca 69 3d d4 9f 97 be
       0.25578666 -0.02969933 0.05707799 -0.29614127
000070 a6 f7 3b bc 95 87 76 3d a0 a4 17 3e 8a 03 b5 3e
       -0.011472618 0.060187895 0.14808893 0.35354263
000080 14 b9 05 be 45 66 1d be ce fa b1 3e 6a 73 09 3e
       -0.13058883 -0.15371044 0.3476166 0.13422933
000090 78 a1 8a be 4b 44 84 3e f3 82 e8 3c 0c e6 5d bd
       -0.27076316 0.25833353 0.028382754 -0.054174468
0000a0 48 53 8e bd 93 9e 07 be 49 d5 83 be 41 d4 94 3b
       -0.069494784 -0.13244085 -0.2574866 0.004541904
0000b0 28 0c 35 3e 36 73 02 3f 4a 30 ee bd 47 ae ab 3e
       0.17680418 0.5095705 -0.11630304 0.335314
0000c0 d0 5f 4b 3d a8 0e 0c bc 0c c6 a4 3c 9e 74 98 3a
       0.04965192 -0.008548416 0.020113967 0.0011631434
0000d0 0d 40 bb 3b d5 f8 13 3d 7d d6 20 bd 64 bb 93 3e
       0.0057144226 0.036125977 -0.039267052 0.28853905
0000e0 8a a9 aa 3e c9 86 f1 3e d5 e6 cd be b6 eb 6d 3e
       0.33332473 0.47173145 -0.40215173 0.23234448
0000f0 ca ab b5 be fc 7b 2b 3c 3d 66 3c 3e d0 fa 97 bd
       -0.35482627 0.010466572 0.18398376 -0.074208856

res_block1.4.running_var f4 [64]
000000 7c bf b8 3e 79 ea 9a 3e 5e 9a 93 3e 1b 61 8b 3e
       0.3608359 0.30257013 0.2882871 0.27222523
000010 81 d0 73 3e d7 73 a1 3e 34 ea 83 3e 68 dd 84 3e
       0.23810007 0.3153369 0.2576462 0.2595017
000020 4d 7e 7a 3e 93 98 87 3e f8 e2 80 3e fb 6f 2e 3e
       0.24462242 0.26483592 0.25173163 0.17034905
000030 3d 62 87 3e c8 aa a8 3e 8e 6e 82 3e af 8a 89 3e
       0.26442137 0.32942796 0.25474972 0.2686362
000040 9f 8b 82 3e d8 aa 61 3e c3 72 94 3e 4e fe 5a 3e
       0.25497147 0.22037828 0.28993806 0.21386072
000050 22 0e 9e 3e d9 45 90 3e 0b 0b 98 3e f0 02 88 3e
       0.30870157 0.2817829 0.29695925 0.2656474
000060 60 2b 53 3e 7f 43 86 3e d9 3f 8b 3e 88 00 94 3e
       0.20622015 0.2622337 0.2719715 0.28906655
000070 10 89 90 3e 3e 64 8a 3e 25 30 8b 3e 54 88 76 3e
       0.2822957 0.27029604 0.2718517 0.24075443
000080 92 59 77 3e f0 01 67 3e 19 45 8c 3e e5 66 8a 3e
       0.24155262 0.22559333 0.27396467 0.27031627
000090 aa 8a 94 3e 4f fc 9d 3e 05 03 81 3e ad 6d 6b 3e
       0.29012042 0.3085656 0.25197616 0.22991057
0000a0 f1 60 67 3e 88 38 66 3e 59 79 af 3e fd 67 8b 3e
       0.22595574 0.22482502 0.34272268 0.27227774
0000b0 2e 7f 63 3e 0e c8 ac 3e ea f1 92 3e 75 64 80 3e
       0.22216484 0.3374638 0.2870019 0.25076643
0000c0 64 a6 80 3e dd f6 8c 3e a7 79 96 3e db ef 61 3e
       0.25126946 0.27532092 0.29389688 0.22064154
0000d0 15 2c 63 3e 6f 13 8e 3e a3 4b 89 3e 39 85 c7 3e
       0.22184785 0.27749202 0.2681552 0.38968828
0000e0 5a 8c be 3e 2c 5d 84 3e 6f 38 8b 3e b0 e2 5e 3e
       0.37216455 0.25852334 0.27191493 0.21766162
0000f0 4e e6 9c 3e 4c e7 a3 3e 2e 0f 8a 3e 56 9f 9f 3e
       0.3064446 0.32012403 0.26964706 0.3117625

res_block2.0.weight f4 [64, 64, 3, 3]
000000 3b 1c 12 bd b9 dd a0 3c 70 72 78 bc fb 92 0b bd
       -0.035671454 0.019636976 -0.015164003 -0.03407572
000010 3c 81 39 3c 9c 29 a6 3a 77 84 11 3d b5 d8 8a 3d
       0.011322316 0.0012677195 0.03552672 0.06779615
000020 68 c4 b5 3b b4 ca 4e bd 54 37 57 bc cc 23 ce 3b
       0.005547095 -0.05048628 -0.01313575 0.0062908884
000030 dc ce b0 3c 99 08 bd bc a5 61 49 3c 29 fd 17 3d
       0.021583013 -0.023075389 0.012291347 0.037106667
000040 50 51 b5 3c 92 71 b9 bc 10 61 3b bc 77 13 1f 3c
       0.0221335 -0.022637162 -0.011436716 0.009709231
000050 91 0f 22 3d a4 73 d7 bc ea c1 4f bd 5f 20 2a bd
       0.039565627 -0.026300259 -0.05072204 -0.041534778
000060 f5 a5 34 bc 9a 1d 6f bc 6f 8f af 3c 70 a5 85 3d
       -0.011025895 -0.01459446 0.0214307 0.06525695
000070 15 1f ec bc 9a 99 14 bd a5 ee 91 3c 77 dc 50 bd
       -0.028823415 -0.0362793 0.01781399 -0.0509915
000080 6d 8f cb 3b a3 56 a9 bc f0 a9 37 3d 6a f3 98 38
       0.006212166 -0.020671194 0.0448398 7.293264e-05
000090 18 37 21 bd 34 90 36 3c 65 c2 67 3d 6f 18 0c bd
       -0.039359182 0.011142779 0.056581873 -0.03420299
0000a0 58 28 51 3d 17 d4 f1 bb 07 0f d9 3c f8 94 7e 3d
       0.051063865 -0.0073800194 0.026496423 0.062153786
0000b0 ca 6e 02 bd 7b 68 97 3c 71 8c 5e 3c b0 8f 3d 3d
       -0.031843938 0.018482437 0.0135832885 0.04627961
0000c0 a4 24 12 bc 86 0e 82 3c 6f 10 c9 3c 2a 6a 08 bc
       -0.008919869 0.015876066 0.024543969 -0.008326093
0000d0 3f 68 79 3c f9 10 93 3c 1e c7 f0 3c 8b b8 4a bc
       0.015222608 0.01795243 0.029391821 -0.0123731
0000e0 61 c3 41 3b 1f 01 16 bc 5c fc 32 3d 3c 87 ce bc
       0.0029565918 -0.009155541 0.0436977 -0.02521097
0000f0 71 4c 8f 3c 1d fc 8f 3b 4a f3 55 bd 29 b9 43 3d
       0.017492505 0.004394068 -0.05223397 0.047784004
000100 78 23 6c bd 79 6d 4d 3d 32 71 90 bc af 6a a5 3b
       -0.057651013 0.05015323 -0.0176321 0.005048118
000110 cd 0f bd bc af b0 90 bc 95 4f 80 3d 3d 88 b9 3c
       -0.023078823 -0.017662374 0.06265179 0.022647971
000120 68 c7 a4 3c 91 f7 73 bb b2 87 1b 3d c1 d7 7f bb
       0.020114616 -0.0037226418 0.037971206 -0.0039038511
000130 63 3b 35 3d aa c3 5a bc 64 da 61 bd 4f ea 0d 3c
       0.04424609 -0.013352314 -0.055139914 0.008661821
000140 79 09 42 bc 6c 7e 16 3c 86 b7 16 3d db b3 1d 3c
       -0.011843079 0.009185415 0.036796115 0.0096254
000150 26 00 34 bd 73 35 3c bd 6e ba 83 3d fa 0b 23 bd
       -0.043945454 -0.04594941 0.06432043 -0.039806344
000160 45 da 97 3c b1 fb 56 3b 98 36 0e 3d 85 53 74 bc
       0.018536696 0.0032803828 0.034720033 -0.014912491
000170 8b 75 12 3b 3f 8b e1 bc 2d 62 ca bc 27 32 20 3d
       0.0022347893 -0.027532218 -0.024705017 0.03911033
000180 00 d4 e0 bb 17 8a 00 3d 34 04 52 bd 5f 69 4e 3c
       -0.00686121 0.031381693 -0.05127354 0.012598365
000190 8c ac 63 bc f2 02 46 3c c2 9b 0c 3d 48 78 96 bc
       -0.013896119 0.012085663 0.03432823 -0.018367901
0001a0 96 59 d1 bc 39 11 17 3d 7d 03 95 3c 0e 20 2a 3c
       -0.025555413 0.03688166 0.01819014 0.010383619
0001b0 5f e5 08 3c de 46 20 bd 3b 94 3d 3d d2 64 3c 3d
       0.008355468 -0.039130084 0.04628394 0.045994587
0001c0 15 6d af 3c 2b ed 40 3b 26 d0 43 3a c9 7f 9f 3c
       0.021414319 0.0029438238 0.0007469676 0.019470112
0001d0 81 0c 28 bd e3 e2 49 3d ea b9 91 bc ab 05 70 3c
       -0.04102755 0.04928864 -0.017788846 0.014649789
0001e0 3b fd 4e 3d 63 66 7f bc 33 b2 25 bd 14 02 1e 3c
       0.05053447 -0.015588376 -0.040453147 0.00964405
0001f0 f2 12 57 3d b8 39 31 3d 43 c6 ec 3a c6 18 35 bd
       0.052508302 0.043267936 0.0018064458 -0.04421308
000200 f8 79 40 bc 3e ce 5d 3d ee d7 64 3c c6 1e 59 bc
       -0.01174783 0.054151766 0.013967497 -0.013251966
000210 dc f8 6b 3c 9f 39 19 3c 27 49 40 bc fe ae 4d b9
       0.014402594 0.009352117 -0.011736191 -0.00019615513
000220 70 e5 c2 bb da f8 12 bd 1d f5 7d 3c 9f fd d9 3a
       -0.0059477612 -0.035881855 0.015500334 0.0016631371
000230 ef e9 99 3c 69 11 a2 bc d3 26 39 bd 39 f0 8a 3d
       0.018788306 -0.019783692 -0.04520304 0.067841
000240 f5 a3 9b 3c 69 80 0d 3c a8 14 a8 bd 01 2c 01 bd
       0.01899908 0.008636572 -0.08207065 -0.031536106
000250 a8 35 85 3b 15 6e 11 3d a9 1f 2e 3d f5 f8 09 bd
       0.004065234 0.035505373 0.042510662 -0.03368469
000260 8d e2 a4 bc ea 21 26 bc b4 1e 39 ba 1a f2 ca 3c
       -0.02012756 -0.010139922 -0.0007061765 0.024773646
000270 dc 95 6d bd b3 dd f1 bc 41 77 22 bd 58 a2 50 3c
       -0.058004245 -0.02952466 -0.03966451 0.012734018
000280 43 c3 06 3c a7 ac 20 3d 54 f5 39 bc 77 4a f0 bc
       0.008225265 0.039227154 -0.011349995 -0.029332383
000290 21 3c a2 bc 10 be b5 3c 12 6e 11 bd d9 12 d5 bc
       -0.019804062 0.022185355 -0.03550536 -0.026009964
0002a0 d4 ff de 39 18 ef ad bb 4f 3e 2b 3d 79 f2 0a bd
       0.00042533746 -0.005308043 0.04180747 -0.033922646
0002b0 15 a8 bb bc 55 ee 71 bd 16 0b f3 bb ee 59 ea 3c
       -0.022907296 -0.05906518 -0.007417093 0.028607335
0002c0 12 7f ac bb 73 a7 98 bd 1e 7f a1 bc 1b 69 36 bd
       -0.0052641714 -0.074538134 -0.019713935 -0.04453383
0002d0 5a 78 b3 bb fc ce cc 3c 38 0f cc bc 73 98 af bc
       -0.0054769935 0.025001042 -0.0249096 -0.021434998
0002e0 b6 4a 12 3d 7f de 28 bd 73 82 1a bc a6 15 03 3c
       0.03571578 -0.041227814 -0.009430516 0.008000767
0002f0 73 3d 59 bd cb a0 7b 3c ba 2b 8e 3c a1 05 de 3c
       -0.05303712 0.01535816 0.017354835 0.027102293
000300 8a f7 3e bc e5 87 5e 3a a5 bf 80 39 a3 b9 07 3d
       -0.011655698 0.0008488878 0.0002455685 0.03313602
000310 0c d8 0e bd e2 49 6a 3d ac d6 97 3c 43 a8 35 3c
       -0.034874007 0.057199366 0.01853498 0.01108748
000320 13 4b 74 3d 2d 4c 99 3c 2e ba 7f bb 3f 9b 39 bb
       0.05964191 0.018713081 -0.0039020884 -0.0028321294
000330 83 9f ef 3a 91 e1 50 3c c8 b9 44 3b f1 d8 61 3c
       0.0018281791 0.012749092 0.003001796 0.013784633
000340 29 7f b6 3a 09 c0 01 bb 3d 70 af bb ff 8c b0 bb
       0.0013923395 -0.00197983 -0.005353956 -0.005387902
000350 53 59 fc bc a2 49 80 3a 76 27 26 3d d4 8a f7 3c
       -0.030804312 0.0009787569 0.040564977 0.030217566
000360 86 3f 3c bc 34 ed 01 3c 2e cc 86 bb 5a da 0a 3c
       -0.011489755 0.007930089 -0.0041136956 0.008474911
000370 b2 21 d0 3c f0 27 2d bd 60 9b de 3b 26 56 b9 bc
       0.025406692 -0.042274415 0.0067934245 -0.022624087
000380 73 c4 07 3c 36 64 a9 3c 7d 33 6b 3c 4c e9 0e bd
       0.008286583 0.020677667 0.0143555375 -0.034890458
000390 84 9f 06 3c e5 df 48 3d 88 47 e6 bc 57 62 d8 bc
       0.008216742 0.049041647 -0.02811028 -0.02641408
0003a0 e0 6e 34 3d e9 3e 45 bc 16 9b 25 39 8b 20 37 3d
       0.04405105 -0.012038925 0.000157934 0.04470877
0003b0 64 ed e4 3b e6 58 cf 3c 90 a9 0d 3d 54 f4 2a 3d
       0.006986307 0.025310945 0.034585536 0.041736916
0003c0 45 17 24 3c 1d 42 cb 3a 96 b2 d3 3b 54 bd 00 bd
       0.0100153135 0.0015507374 0.006460498 -0.031430557
0003d0 c4 8f 6e 3b e5 8c 0a bd e1 d6 32 bd eb 72 12 3d
       0.003640161 -0.033825774 -0.043661956 0.035754126
0003e0 db 03 53 bd 93 1a eb 3b 8e 0a 8d 3c 29 89 01 bd
       -0.05151735 0.0071747988 0.017216947 -0.031624947
0003f0 5d 39 43 3b 12 7a 4a ba c7 21 90 3c 74 63 14 bd
       0.002978883 -0.00077238784 0.017594231 -0.03622766

res_block2.0.bias f4 [64]
000000 dc 0d cf bb 31 08 a6 bc f7 7f 95 3c b8 88 27 3d
       -0.006318791 -0.020267578 0.018249495 0.04090187
000010 1d 06 92 bb ca 78 07 bc 6f be 9c 3c 90 c1 c5 3c
       -0.004456295 -0.008268544 0.019133775 0.02414015
000020 99 ec 5e bc 26 dc 1d bd 7a d3 e2 ba 82 6e 7e 3c
       -0.013606214 -0.038540028 -0.0017305457 0.015529277
000030 fe c9 ff ba ad 4a 56 bc ae 55 23 3c 87 6e 1c 3d
       -0.0019515154 -0.0130793275 0.009969158 0.038191345
000040 c3 f2 bb 3c 1b 9d d6 3c 52 4f e5 ba c0 b9 66 3c
       0.022942906 0.02619796 -0.0017494953 0.014082372
000050 0f 2a 1c 3d e1 43 a1 bb dd c8 2e bc ce d1 86 3b
       0.038126048 -0.004921422 -0.010668007 0.004114366
000060 c5 a8 c7 bc ba 55 31 3d 15 e6 b9 3c 47 c3 b3 3c
       -0.024372468 0.043294646 0.02269272 0.021943701
000070 fd c8 f8 3c 0b 26 26 3d b1 9e 3a 3d b8 33 7f 3c
       0.030369276 0.040563624 0.045561496 0.015576296
000080 f3 29 0a 3d e8 25 95 bc 30 6e 44 3d f3 22 00 bd
       0.033731412 -0.018206552 0.047956645 -0.03128333
000090 e8 a4 da bb cd 5b c6 bc 6b 6c 3a 3c b6 38 b1 bc
       -0.0066724904 -0.024213696 0.011378388 -0.021633487
0000a0 36 dd b2 bc b4 4c f5 3c 00 1b f3 bb d0 35 0e 3c
       -0.021833997 0.029943801 -0.00741899 0.008679822
0000b0 45 49 6f 3c 46 8c e9 bc 2b 90 49 3c 5f 27 d1 3a
       0.014604871 -0.02850927 0.012302439 0.0015957168
0000c0 44 06 4f 3d b0 97 98 bc f4 b8 25 bd c3 d9 67 bc
       0.050543085 -0.018627018 -0.04045959 -0.0141510395
0000d0 81 87 ab bb d6 a3 6e 3d ca f1 97 3c b0 c9 2a bd
       -0.005234659 0.058261715 0.018547911 -0.04169625
0000e0 e3 16 10 3c 9a 21 1b bb ab ba 0c 3d 8b 24 ed bc
       0.008794519 -0.002367115 0.034357708 -0.02894809
0000f0 d3 99 76 bc f5 66 ca 3c 5c 40 d4 3c 18 ec f9 3c
       -0.015051323 0.024707297 0.025909595 0.030508086
